weights_proj/w2.npy (npy, 16128 bytes, 1 tensors)

array f8 [1000, 2]
0.1454694848858202 -0.12991884316316493 -0.022052999409445672 -0.004854644300375277 0.10132453589041933 -0.11721201844180848 0.4182672794411711 -0.4481319598635559
0.4627682693826809 -0.4599061050602935 0.014933451158332726 -0.006884122047190052 0.13302074728937074 -0.11333508869987427 0.1397912236823879 -0.133471529072674
-0.013456654012696696 -0.007112733080761109 0.36965946385954074 -0.3913014393072469 0.49221921022727855 -0.5247923576095214 0.2785811612045897 -0.24962335135554
0.015725345191190114 -0.005201966265912786 -0.008281063034610915 0.001096161258980013 0.3252409201067425 -0.3246827661722515 0.1514403879615471 -0.14638370281549506
0.09632521072617053 -0.0895073666567274 0.2789864187944615 -0.2666966684387707 0.04022315250306728 -0.0797403421479702 -0.006632285774523625 -0.0016521833994555977
0.4796039915392405 -0.4780391088137429 0.08871231833474438 -0.08912036725253458 0.16428491221201827 -0.139000213813432 0.3561838457131316 -0.3565117703744349
0.5154539778017632 -0.5139732502936376 -0.00432350551306013 0.006135280731307741 0.37948026504037485 -0.36719056019993634 0.008029764964687443 0.015085276756597274
-0.01128336441466984 0.00012060758312190845 0.3179144522771011 -0.32061998393402474 -0.009935590157133743 0.008829969452009211 -0.014882587690350108 0.0018791244402130028
0.06527825242699527 -0.05305671341997865 0.29347444835861486 -0.28455641049795455 0.04423146225814985 -0.02635345753218898 0.24288498713729922 -0.25553298581612527
0.14823934562205598 -0.12825042682561905 0.4945684765138892 -0.516382611534104 0.19763225728725384 -0.1933685360086088 0.18215713950583157 -0.2117885776909374
0.17180753712904984 -0.16030019879960808 0.2566716668281279 -0.2590957351885767 -0.002119494425575532 0.01265797839424342 -0.028706725089445335 -0.001074301539170613
0.000307651284997758 0.0027645782391358537 0.001956589988056512 0.00868363100847961 -0.010098704521739894 -0.005866490423492235 0.07566226569057403 -0.08037273701751405
0.0011701703517020537 0.004585746973787734 0.43136473616962756 -0.40664536831397313 0.007590345696459765 0.0003590121509082783 0.2778983663009642 -0.27458985365770844
-0.003292656297843339 0.0014005992766918708 0.5741557672717008 -0.5948686071395394 0.17671702580206797 -0.1803240995418326 0.0022630723065629153 0.011997615893302598
0.004625030013338794 0.010686902241606245 0.24218000703304488 -0.2335748318005401 0.25122020490368085 -0.2573941672387611 0.13813289614734447 -0.1374866975791713
0.26018290053432186 -0.26029717309189754 0.4041503899446534 -0.4059916240654643 0.2463997408166906 -0.23513026171475568 -0.005093684051613077 0.0038393831338547338
-0.00164315731219887 0.007099365390687714 0.36074747606998764 -0.3709435124080503 0.07719045244301036 -0.06295599678769477 0.21114512658060797 -0.21730127321172615
0.1757149302682727 -0.16286925992599396 0.0064317643971788935 0.004529860053893515 -0.0010070654193339958 0.007866821149119527 0.21538972709609752 -0.21688754260034138
-0.0015233351946863903 -0.002538478863565106 -0.006236624173856229 0.03399529435810665 -0.002714405746319687 0.0030291603352126393 -0.0020635978572526824 0.008576104937201793
0.272099378458698 -0.2429521820975896 -0.018404771311743208 0.010061646139329783 0.0010852065473482071 0.009448279601307131 -0.01821529434420525 -0.013041084194772394
0.4903163264465385 -0.4743079663300109 0.30144341295639343 -0.30889074628126434 0.10140923011371164 -0.10762721117263335 0.16196437715995743 -0.1576431802462687
-0.011765526636249982 0.01063339767929554 0.2716836004315949 -0.24962106459624675 0.031417283164491404 -0.028904056764623043 0.15345399665484855 -0.16046073358156032
0.4408245535318817 -0.4533585296575156 0.24401429204540726 -0.2670616448819449 -0.014522011722108584 0.003561175750445207 0.15228044060139145 -0.15961935068517863
0.09016228727038837 -0.09097990631482654 0.026468992253964162 -0.033543267764413943 0.24153168863045898 -0.23232843659651548 0.08159213688016546 -0.07122654657480797
0.17597957949853052 -0.199242268897577 -0.012586646730518429 -0.01183585644648447 0.08880004783361148 -0.0823879873292952 0.004386335416561172 0.008102627835171506
-0.02286097466566489 -0.008061149770541846 0.18138448459521425 -0.16886566206750148 0.25113013055762895 -0.2470360234658455 -0.015683080517516757 0.00981199890989279
0.011941777816184048 0.018965741481947785 0.009236555119163041 0.01105271440352333 0.010377045892259344 0.01336949905635628 0.003246725884598501 -0.007526195550141736
0.1751335322562769 -0.1965899712022422 -0.012426540763550806 0.005732623013215032 0.2880537291687211 -0.2809852484193023 0.15385208346643614 -0.15925837231385215
0.11598223816074173 -0.11968759030616027 0.08625201193346588 -0.09436978545363792 0.17435789189162126 -0.1666690664114732 0.12187415746546555 -0.13699313943218805
0.33564661137659596 -0.3292949243530068 -0.007242864342953256 0.013692462262460028 0.07453703847367332 -0.07907618963449528 0.487070852478345 -0.4873719661021855
0.1851936681256314 -0.20120838293036758 0.011017688629002004 0.015870807009980677 0.057841815253355106 -0.0592527719733681 0.21652506758245835 -0.2174094630707155
0.23632212486820747 -0.23623288729896688 -0.014192182003303022 -0.0039097144180239 -0.012385081943242527 -0.005289972793446885 0.5956867551103866 -0.5919787425936498
00000000: af45 137c be9e c23f 9c8d 423f 2ea1 c0bf
00000010: 5317 f8bc 0f95 96bf 66aa 0fa8 76e2 73bf
00000020: cf85 ee9f 67f0 b93f 06dd e759 9b01 bebf
00000030: 45f3 8b1f e4c4 da3f c201 faab 31ae dcbf
00000040: 2c02 a8cd fe9d dd3f a8bd 1d04 1a6f ddbf
00000050: 624b bbe2 6d95 8e3f 22a2 de70 8632 7cbf
00000060: d80e a6e7 d206 c13f 3e89 7443 8703 bdbf
00000070: 1ee9 fdc6 ade4 c13f 4839 2856 9815 c1bf
00000080: 4459 2f87 298f 8bbf 8805 79bf 3d22 7dbf
00000090: 74c0 fb2a 80a8 d73f 60f3 2c31 150b d9bf
000000a0: 2ee7 9800 8580 df3f c9f4 a357 19cb e0bf
000000b0: 59f2 2914 46d4 d13f 43ea 3171 a8f3 cfbf
000000c0: 0e05 420d 4e1a 903f b7b6 ca2f a84e 75bf
000000d0: a734 4777 a9f5 80bf 71a1 8a30 a2f5 513f
000000e0: 6b7b cb4a bfd0 d43f 7737 9239 9ac7 d4bf
000000f0: 9750 cb0c 6662 c33f 8845 2180 b3bc c2bf
00000100: e265 d9dd c4a8 b83f 7eae 8a6c f4e9 b6bf
00000110: 1806 30da e9da d13f 2263 39e7 8e11 d1bf
00000120: 0edc 1509 2198 a43f a787 b2f1 dc69 b4bf
00000130: 3d27 fda7 742a 7bbf ccdf ba6a c211 5bbf
00000140: 584b acf0 d4b1 de3f c218 a458 3198 debf
00000150: 7a04 00ba d9b5 b63f 48d4 c1a6 97d0 b6bf
00000160: 01a3 96ba 4907 c53f fd9b 3b4e c2ca c1bf
00000170: e7e3 2c54 b7cb d63f b36c 99be 16d1 d6bf
00000180: c90d 2857 997e e03f baf5 a007 7872 e0bf
00000190: e3cf 852c 86b5 71bf ede2 7be1 4e21 793f
000001a0: 45da f497 6749 d83f 745a ddd5 0c80 d7bf
000001b0: 84db 57cf e871 803f 25c8 9092 07e5 8e3f
000001c0: 4ee8 3289 bb1b 87bf 8378 2980 d69d 1f3f
000001d0: 7f2d dddb b558 d43f 2134 5cae 0985 d4bf
000001e0: bfae 5456 1c59 84bf c620 2b70 7215 823f
000001f0: bd7c 471b c37a 8ebf 4958 0381 9ec9 5e3f
00000200: d160 5057 13b6 b03f e1b0 f1e1 3f2a abbf
00000210: 6f5c 7a0d 49c8 d23f e82c 3d17 2c36 d2bf
00000220: fabd b497 81a5 a63f 9ff8 f298 66fc 9abf
00000230: a4d7 38f2 da16 cf3f 9049 4806 a75a d0bf
00000240: 8cad b6c2 81f9 c23f 6800 758e 826a c0bf
00000250: e59e 108a 02a7 df3f b562 98d3 3486 e0bf
00000260: 137a d788 034c c93f 67be 1dd9 4cc0 c8bf
00000270: d489 74d6 ec50 c73f c8a9 6c5b e31b cbbf
00000280: 3c79 9614 cafd c53f 9b7c b187 b784 c4bf
00000290: 248b b5ff 4e6d d03f bbc0 4a47 0695 d0bf
000002a0: 9ea7 bde7 e65c 61bf 3add e419 6dec 893f
000002b0: 52db bcb5 4b65 9dbf 4b91 837e f299 51bf
000002c0: 51bf 2735 8829 343f a071 faa3 bda5 663f
000002d0: 4d10 5540 4407 603f d41d 8939 b9c8 813f
000002e0: 4404 392d a1ae 84bf 36dc 2d08 7607 78bf
000002f0: cba9 ae2c 9a5e b33f 72f0 fac4 4e93 b4bf
00000300: 7c35 0bd9 0c2c 533f d27d 7b14 81c8 723f
00000310: 0cc2 9fd6 7a9b db3f ee9d 7e4b 7a06 dabf
00000320: 728d 81e8 0d17 7f3f 0ac0 6f72 3987 373f
00000330: 50f7 b73a 16c9 d13f 7b7d 5152 e192 d1bf
00000340: c2f4 b763 33f9 6abf 95f3 a405 8af2 563f
00000350: 5abc 67ea 7b5f e23f c79a a2e3 2909 e3bf
00000360: bdae 3bdb a99e c63f ac3d 1b2f dc14 c7bf
00000370: 780a 72b1 018a 623f f635 22bf 3492 883f
00000380: f4a9 670a b2f1 723f 6769 fcbc 03e3 853f
00000390: 68da f924 c1ff ce3f 3542 e0b3 c7e5 cdbf
000003a0: 73f7 09e9 fd13 d03f 3e2f 9e62 2579 d0bf
000003b0: a030 bab7 56ae c13f 2069 de02 2a99 c1bf
000003c0: 4b7e 312e d6a6 d03f ddf0 6a79 b5a8 d0bf
000003d0: 7796 de98 99dd d93f fee8 f34a c4fb d9bf
000003e0: d578 46d6 068a cf3f a7b1 2e98 bf18 cebf
000003f0: b173 af66 1ddd 74bf 7e21 e51f c573 6f3f
00000400: bfc7 c1ba e6eb 5abf 2f44 ce62 3914 7d3f
00000410: ed72 f594 7c16 d73f 392e 9ddb 89bd d7bf
00000420: 5761 cee4 c0c2 b33f 854c 4a5b e21d b0bf
00000430: 92ce afb2 cd06 cb3f 4269 e932 87d0 cbbf
00000440: 4de8 75ab d37d c63f 77f3 7360 e6d8 c4bf
00000450: b005 dd9b 3158 7a3f 5443 970c e78d 723f
00000460: 2f49 9f42 f07f 50bf 85ba 78dc 7a1c 803f
00000470: 4dd4 e2fc e391 cb3f 406b 3093 f8c2 cbbf
00000480: f5b7 e3b5 54f5 58bf 624f 6b76 93cb 64bf
00000490: be94 d30d 938b 79bf eecf f8ca d467 a13f
000004a0: 5a93 127d 853c 66bf 42da 5e12 9cd0 683f
000004b0: 784b e3a9 ade7 60bf 22d8 db51 5990 813f
000004c0: 807d ef82 136a d13f 0bed 4c9e 0e19 cfbf
000004d0: 7a47 7f4b b3d8 92bf b315 e648 339b 843f
000004e0: a245 56a8 afc7 513f 87ed 209f 9e59 833f
000004f0: ab43 fbb5 07a7 92bf 1caa f7b0 48b5 8abf
00000500: 7518 b2ba 5761 df3f 9ba8 e7cc 0f5b debf
00000510: 6082 0f50 d94a d33f 022a 54b1 ddc4 d3bf
00000520: 8ad6 d98e f4f5 b93f d469 25f8 748d bbbf
00000530: 766f 82ab 3fbb c43f 1d2e ccd7 a62d c4bf
00000540: 88b8 fb40 8618 88bf d836 397a f6c6 853f
00000550: 96a5 ad9c 4363 d13f dbb2 6a42 95f3 cfbf
00000560: 9bfa 7017 ed15 a03f 0067 1a6a 0699 9dbf
00000570: 4a5a 896c 61a4 c33f 3c32 8331 fa89 c4bf
00000580: ef5d 2c30 7836 dc3f 9d77 8f7e d303 ddbf
00000590: 1cba 0b3e dc3b cf3f bb2b b2b9 8917 d1bf
000005a0: 1943 596b b7bd 8dbf c363 45ac 532c 6d3f
000005b0: 8c0a 1aec ec7d c33f 5834 8029 686e c4bf
000005c0: 0bac 282b e014 b73f 771f 378a 754a b7bf
000005d0: 63fc 5a00 b01a 9b3f 6d27 194c 952c a1bf
000005e0: eec7 cea7 82ea ce3f a871 8e2e f0bc cdbf
000005f0: 3bd5 82e7 38e3 b43f 8754 2528 e73b b2bf
00000600: f5e1 5ab5 7f86 c63f e0ad 724a c580 c9bf
00000610: 6f4f 9720 07c7 89bf 12c7 dcc2 653d 88bf
00000620: ee1e 5495 99bb b63f 309f 290f 6117 b5bf
00000630: e75a 9df2 67f7 713f 1a80 824c 1c98 803f
00000640: b0c3 2c0a de68 97bf 02a3 0f35 5d82 80bf
00000650: 234c ab56 9b37 c73f bea7 ffd7 639d c5bf
00000660: 2741 721c 8412 d03f f71e dc5c e09e cfbf
00000670: 7d6d b1b7 390f 90bf 7138 6933 5018 843f
00000680: deb1 6949 ee74 883f 4d2e a35d c16b 933f
00000690: dce8 5071 9dea 823f 174a 2937 cea2 863f
000006a0: dc08 e485 8f40 853f 2c08 b0c9 7761 8b3f
000006b0: e827 caaf e098 6a3f cfbf 04bc c9d3 7ebf
000006c0: 3ba1 bc8c c66a c63f d481 8434 dc29 c9bf
000006d0: d873 7411 1673 89bf c0fa ca45 177b 773f
000006e0: d84f 91e8 786f d23f 40a3 278d a9fb d1bf
000006f0: 8274 74d1 6cb1 c33f 42e1 590e 9462 c4bf
00000700: 8938 d10f 03b1 bd3f 001d 1a8e d8a3 bebf
00000710: 88eb 77a2 9c14 b63f 5600 4146 9e28 b8bf
00000720: 96ac bc01 5c51 c63f 19fe be76 6955 c5bf
00000730: bdae 8a10 2533 bf3f 649d d1be fd88 c1bf
00000740: 7d0b b8ec 3b7b d53f f46f b504 2b13 d5bf
00000750: 56b3 b797 b1aa 7dbf c8ab f32c cb0a 8c3f
00000760: 78ca 95fe db14 b33f fa58 5f50 563e b4bf
00000770: 61ad 8e39 2b2c df3f d359 d92f 1a31 dfbf
00000780: 874f 0316 6db4 c73f fcf8 2e40 32c1 c9bf
00000790: ca6c b622 7190 863f 82a6 46d4 6f40 903f
000007a0: 6478 b541 719d ad3f 315b a51b 6156 aebf
000007b0: d7f2 03ea 17b7 cb3f ef64 ddc2 12d4 cbbf
000007c0: b8a9 d0aa cd3f ce3f dd27 9816 e13c cebf
000007d0: e028 816c ca10 8dbf 7e69 fef8 a103 70bf
000007e0: 0d6e 3c8f 595d 89bf 7437 5042 f0aa 75bf
000007f0: ca80 7bab dd0f e33f e0bd 6b67 7df1 e2bf
