weights_demo/w2.npy (npy, 16128 bytes, 1 tensors)

array f8 [1000, 2]
00000000: 7ac1 22c1 b361 c23f 41d5 9014 0edd c4bf
00000010: 06bf 22cb 1b2d aabf fdcf c1ef 5966 ab3f
00000020: 5d81 fc3f 88b5 c73f b9f6 c4d1 21f7 c8bf
00000030: 2915 1ed5 6f04 a6bf 2791 47b9 d806 a13f
00000040: bb3b b412 9fc9 1b3f f3a0 a858 14d2 89bf
00000050: db32 ac31 2288 a7bf 86d8 83e1 2aa3 9a3f
00000060: 0668 f2a7 6cb0 afbf 805b cf18 6329 a13f
00000070: b066 e8f3 35de 99bf 894f 9a7d b37c a03f
00000080: 7fd7 7282 3c16 cb3f b89b 2fc8 6cae cabf
00000090: 89fd 330c 98ab 84bf 5e1a 46c4 d4ab 5c3f
000000a0: 17a0 e048 ef02 8dbf cdd4 1053 0cc6 80bf
000000b0: f9b8 bb38 9fc1 5abf dbcc 1b6a 1276 833f
000000c0: b517 f99f 759e 463f 5f5c afce 1600 89bf
000000d0: 9303 b788 2d4f 883f 8c45 7c55 70c0 2e3f
000000e0: 3ab5 7d00 6eb7 cd3f 3e33 75e6 85c2 cfbf
000000f0: 731f 7726 b13a b33f ed39 c5d1 7bf5 b1bf
00000100: aa0c 6555 daf6 65bf e3ea 01ab 495c 68bf
00000110: 440a 09e9 fa8e c93f ad58 91ed 997a c7bf
00000120: bd1e b474 7aa9 743f df02 f89b e5c6 82bf
00000130: 8b83 393b 1289 c43f c1b6 2783 544b c4bf
00000140: 4edf 1d62 8922 b93f df49 5124 a03d b8bf
00000150: 3dff b171 3fdf a13f 57ec 5191 a406 a2bf
00000160: 11ac 55d6 f239 a2bf b5d1 9d8f 871f a43f
00000170: 5a59 74e1 179a c43f 3c1a e948 2444 c7bf
00000180: 4f25 a48e 321b a13f 7cbe 0e9e 8633 a0bf
00000190: 0855 e920 e06c 833f bab1 add6 5f11 5a3f
000001a0: eba0 723b a611 82bf 60ff 9b19 b825 513f
000001b0: f283 e805 0a42 713f 8c69 c28c 4cc8 62bf
000001c0: a246 ef7a 5e83 c13f 962d 3f54 5073 c1bf
000001d0: e1c5 e4fd 9fb3 a2bf f621 33b9 b3d4 a33f
000001e0: bbff 94fa 00ae 863f d9a3 35e8 7094 94bf
000001f0: f587 8aa1 fea4 5b3f e2f9 a576 7d9e 7dbf
00000200: ac2f 3686 4b44 a23f fe65 2404 5be8 99bf
00000210: 7239 4a22 f6a2 5ebf 1cc3 1c92 12a9 713f
00000220: 10b5 050a 4111 9c3f e60a c3d2 5da8 7b3f
00000230: 1a51 db39 3d19 acbf 1284 a737 9489 893f
00000240: 8b72 4a5c e48d a43f ec39 8511 9752 a8bf
00000250: 8cbd 559b 38e5 b5bf e288 fddd 3e03 af3f
00000260: cb32 fed4 b655 d03f 98a8 81dc b7cd d0bf
00000270: c96a d955 341c b43f aeb5 dacf f126 b6bf
00000280: cccf d082 1e02 8c3f b470 d903 f4be 84bf
00000290: 0e37 270b f656 c93f 2911 ba95 9f9e c4bf
000002a0: bf81 847c 7ac5 87bf 351c 5493 286d 933f
000002b0: aa6e 853c fb49 b7bf 0661 57c6 2673 ba3f
000002c0: f427 d750 f83a 713f bbc5 f068 348f 053f
000002d0: c710 9619 2e1e 853f b12e 2a01 991a 7c3f
000002e0: 1791 8f01 6dd2 a5bf f32f b263 3d99 ab3f
000002f0: 07c3 b7e6 8d6e b2bf c421 c4d9 b8e6 b43f
00000300: d205 69bd 8688 c63f f48d d4b6 fefb c5bf
00000310: fb23 bdb3 24cd 4cbf 760c 0c30 4f97 57bf
00000320: 71d2 ee85 d945 4c3f 8fcd b121 6f26 94bf
00000330: fd60 feaa a4d8 c63f 352d 1a05 acbf c8bf
00000340: 6aca 68b2 983e 89bf 66de 5c9a 6e95 8ebf
00000350: 0356 1ba9 6733 b43f cf27 4b1a 9873 b8bf
00000360: 78c3 fc2d cfce 9bbf ee3b 903e 6189 a23f
00000370: 52b4 8dc2 e8c9 9b3f fa5e 961a ddeb 9dbf
00000380: 582b 23b8 7b55 9abf d711 62d6 c3d6 a13f
00000390: df4f 2256 ef73 7a3f 61ec 8949 5500 733f
000003a0: 3421 3d0b cbc5 6dbf d8c7 0f09 df3c 853f
000003b0: e37d 6767 ba37 71bf 5e3a 567b 2c48 753f
000003c0: 97a0 3882 17cf b3bf 7fa6 6796 ca65 a73f
000003d0: d9f9 42bd 761d 7dbf 159b 6da6 a583 6abf
000003e0: 5ebd b233 37d2 90bf 3864 44cf d710 893f
000003f0: 0743 61f4 948e be3f e1ed 9a1a d7cd c3bf
00000400: 5548 7414 e366 8cbf 2972 6eae ac19 883f
00000410: 3ea5 acb6 1492 a1bf 271e ed46 3e2e 843f
00000420: da85 28e4 3aad c33f a8f0 af5e 4ef0 c7bf
00000430: fa65 b521 65c5 aabf 4c33 9203 82b9 a83f
00000440: da9e 0c89 594d 9bbf 1ea8 674e 5aec 9b3f
00000450: 52f7 1742 44c2 a3bf 720b d9e2 d42c ab3f
00000460: 5b29 0b41 4df5 a23f cf82 16d6 9693 aabf
00000470: be9e 40ba 6ca1 86bf 4e42 4e27 3167 42bf
00000480: d884 c942 28a2 ca3f 3bb5 8312 07cd cabf
00000490: 525d 5e50 b3fa b3bf d7cf 7323 2989 b83f
000004a0: f795 3a4a 99a9 aebf 512c 1014 dfe4 ae3f
000004b0: 32c8 ed2e c751 733f 820b f89b 0095 72bf
000004c0: f0cb 433e fdc6 b8bf a025 8eee 6ac4 b93f
000004d0: d0e1 c0fd 67dc 88bf 45dc b6c9 50ca 20bf
000004e0: 799f 335b 2321 a1bf 85b0 9126 cbd9 a33f
000004f0: fbe9 1b73 8fb7 a2bf feba b5e3 4120 9d3f
00000500: 522f 7cd2 4ad0 b13f 408c 1b5a f03d b4bf
00000510: 1315 503f 2766 bb3f 4351 1ea9 9352 b8bf
00000520: 6119 2c73 d79c d03f adcc 31cc 6d16 d0bf
00000530: 1e24 4582 0d67 783f 2048 90d1 f9f0 793f
00000540: 21db 87ee 359d 97bf 966d 5d12 4f96 9a3f
00000550: 431b 34eb 3bfc 943f b781 9e4e 4e44 80bf
00000560: f130 ffef 2d29 923f 2ba9 07e9 280e 803f
00000570: 6d0b 4d09 75db d63f 5798 e677 a7ce d5bf
00000580: de28 8269 e545 81bf 3dce 7ab5 4f58 5b3f
00000590: f64a dc52 7b45 a93f 1446 11f3 78c9 abbf
000005a0: bffa e5cd f378 a83f fc0e ece0 3e6e afbf
000005b0: d11e 42c1 9062 82bf dcfa 8bac 5803 723f
000005c0: daa3 d629 4670 783f fdd1 771b 60b6 88bf
000005d0: cbb5 e4c8 450c a0bf 1740 0fc2 dc7f 863f
000005e0: 5b1e 0896 a20e 763f 154f fb6b 4de7 713f
000005f0: 5066 4ddd 4927 c03f 8790 eff2 c25e c4bf
00000600: 4495 7115 3958 b63f 2099 61ef 7806 b6bf
00000610: c975 da09 334a b1bf 6645 b9d9 1240 ac3f
00000620: 9ea0 97e9 8508 92bf 2def dbc0 e9dd 943f
00000630: e3f0 f138 3171 c13f 6df6 7057 4288 c0bf
00000640: dee3 0cc0 4593 873f a38a f0fa c540 76bf
00000650: 83db 3646 c90d 66bf 2d33 b913 1214 73bf
00000660: 6af9 63e1 5b23 773f bcc8 1e01 80bb 853f
00000670: 16b0 2f73 256c 6b3f ea07 f7bc 409d 973f
00000680: cda0 3234 c4db b63f 197b d230 350b bbbf
00000690: c2f0 f2ca a651 a8bf cfae 9219 bd3c a83f
000006a0: 8eda 70cb 63b5 89bf bffb 5603 f011 763f
000006b0: 8086 c091 ab46 84bf 761f fd44 644d 90bf
000006c0: e663 1e2d c00c b1bf 34bc a4d1 1047 ac3f
000006d0: ba08 8425 675f 8cbf d00a 8dbe e3b9 983f
000006e0: 2141 18d4 4f25 8cbf 8d1c 7180 a7f8 823f
000006f0: 6043 c1bb b9c3 cb3f e4f1 5d10 41f8 ccbf
00000700: a840 59d4 e165 6dbf 6b81 dd8d 2258 78bf
00000710: cf9a cb37 baa7 ca3f 8b0c be17 df49 cabf
00000720: 6e57 1f4d 3bab 83bf db89 007a 2b78 a03f
00000730: 33e3 6c7a 5794 97bf 7eab 412e 5726 993f
00000740: da22 7db6 4093 b63f c689 556a 82c3 bbbf
00000750: 9407 b22d 27d1 6c3f 592a 3645 fcc8 8abf
00000760: 6127 e1ec 4b79 c13f 231f f812 6127 c2bf
00000770: fa1b 2154 4827 be3f 66e8 5ad9 a069 bdbf
00000780: 773d 9d41 b103 80bf ffd2 4af1 490a 8f3f
00000790: 964b e7ec a970 a0bf 5352 196d 98ff 783f
000007a0: b8fb 23cd 4e2a 85bf bdeb 64a5 81da 8e3f
000007b0: df8a 4ded 96ff b33f 85b0 bee9 291a b7bf
000007c0: f7e9 de32 e9df 7d3f c008 9495 ddb5 663f
000007d0: f7eb 84cf b50f b93f d488 8e8f adb3 bcbf
000007e0: 2604 7551 eb91 d13f 6f61 07cd ced5 d0bf
000007f0: 17f4 0685 524a ab3f 4c49 d439 5b6f a8bf
0.1436066334768034 -0.1629960632723542 -0.051125401064721784 0.05351525356027762 0.18522742389996952 -0.19504187338491422 -0.04300260044605359 0.033255360238202684
0.00010600121884272913 -0.012607726054810508 -0.04596049171786883 0.026013059629768985 -0.06189288663991026 0.033518883493960594 -0.025261729251815523 0.03220139415967
0.21161610002098638 -0.2084480264158779 -0.010092914459618256 0.0017499521064522554 -0.014165753757041029 -0.008190246853795458 -0.0016330771349504765 0.009502548087289167
0.000690276559858863 -0.012207201178098424 0.01186976979704627 0.00023461695922625777 0.23216033004738695 -0.2481238723070422 0.0751143187436563 -0.07015203353260065
-0.002681185181388897 -0.0029736937358938328 0.19967590693166148 -0.1834289941786599 0.005044439643149876 -0.009168428251542902 0.16043308154896993 -0.15854889301356503
0.09818323750903099 -0.09469033133181125 0.03490637076265422 -0.035206930865535106 -0.03559836260213712 0.03930305126314996 0.16095255383033696 -0.18176702079854745
0.03341062537408367 -0.03164311103261938 0.00948500729024683 0.0015910564349851234 -0.00882272595329466 0.0010465906001968159 0.004213370468762344 -0.0022927756418315622
0.13682156565351017 -0.13633159745800744 -0.036526679747463715 0.03873216281641938 0.011074073455006208 -0.020097507641739874 0.0016872870093398416 -0.007231226054840141
0.03567729962659824 -0.025300428512400323 -0.00186990772741388 0.004311630765912591 0.02740956901236752 0.0067523636791430915 -0.05488005954035398 0.012469442318378685
0.040145050302475026 -0.0475051125418878 -0.08552888672215014 0.06057163677066214 0.25523157882780073 -0.26255604299388713 0.07855536552362276 -0.0865317470986244
0.013675917021920635 -0.01012983929393161 0.19796634239758543 -0.16109080134277434 -0.011607129025436145 0.018971094124051475 -0.0909726164585957 0.10331957189862714
0.004206628783729006 4.11212796439619e-05 0.010311470180348071 0.006861303018591934 -0.04262104648640468 0.053903501911093964 -0.07199942476996678 0.08164553944164427
0.17604145287081835 -0.17175277640590958 -0.0008789471826072809 -0.0014398835484719353 0.000862818920600873 -0.01967786448626679 0.17848642682361762 -0.1933493637955991
-0.01232642454588025 -0.014933456502702568 0.07890937689384007 -0.09551382677014363 -0.027156102353902395 0.036204375159392885 0.02713741004429366 -0.029220061061635307
-0.025716717828611152 0.0348416518400289 0.006458220394183172 0.004638989594805216 -0.003634354181404254 0.01037000891117039 -0.004203537121127951 0.0051957833833414496
-0.07737872056225324 0.04569848142621157 -0.007108177018550121 -0.0032366023400983803 -0.016426908998878324 0.012239156735221454 0.11936312643343792 -0.1547192459018865
-0.013868116437638781 0.011767720292305732 -0.0343176339141089 0.009853827037331687 0.1537240613989031 -0.18702106116677908 -0.052287254681413445 0.04829031270592185
-0.026662253370118495 0.027268801722961304 -0.03859151179129462 0.05307641286028443 0.037027754011051704 -0.05190726626756758 -0.011050080713246199 -0.0005616178519734589
0.20807364712803778 -0.20938194660213036 -0.07804413520931533 0.0958429061464011 -0.05988768607248212 0.06033990020667857 0.004716661510302743 -0.004536630992791115
-0.09678633470666376 0.1006533462915713 -0.012139141494217492 -0.0001280997865771035 -0.0334559487180845 0.03877100797476011 -0.03655670433177601 0.028443364642437345
0.069584537876094 -0.07907011222737115 0.10702748580668624 -0.0950100219618593 0.25957285163203464 -0.25136895123359687 0.005957653779042919 0.006333328107773567
-0.023060648616559768 0.025964007850559044 0.020493446570095896 -0.007942783140436711 0.017735212109799062 0.007839507686146682 0.3571446028546948 -0.34073816975649635
-0.008434097559320394 0.001669004288413669 0.0493582285545439 -0.054271487876246166 0.04779779327781374 -0.06138798232680462 -0.008977061174177877 0.00439772260938184
0.005966447902587791 -0.01206660350633459 -0.03134363248168944 0.010986065551975384 0.00538505087070681 0.004370977810783013 0.12619899087694586 -0.15914189207171978
0.08728367589499891 -0.08603626102703688 -0.06753844252167264 0.05517634303817935 -0.017610638029424856 0.020377781292139453 0.13626685410043313 -0.12915829915612012
0.011511368678485508 -0.005432866440090808 -0.002692120660607812 -0.0046578127035672824 0.005648955257355185 0.010611534151255923 0.0033474666065469545 0.02306080964422811
0.08929086946830296 -0.10563976709316271 -0.04749795176891915 0.047338399287892956 -0.012553004880925724 0.005388200331650716 -0.009900417695521968 -0.015920225821246935
-0.06660081006556559 0.055229688254592096 -0.013853841621770936 0.024146612649256494 -0.013743041668050683 0.009263332946046776 0.2169105688831463 -0.22632611560028615
-0.0035886202556768172 -0.005943427064125077 0.20824363445645708 -0.20537937793060154 -0.00960394219502422 0.032166823046526814 -0.023026816222429147 0.02456032008960162
0.08818439917844093 -0.10845198722885305 0.0035177006917032714 -0.013078661787195122 0.13651417795545753 -0.1418267576811952 0.11778690389574811 -0.1148930102016564
-0.007819542708289202 0.015156343151241368 -0.03210955635918038 0.006103129782407085 -0.010334602008240754 0.015065205440455526 0.07811873715904082 -0.09024297672903188
0.007293616230465086 0.0027722671335378146 0.0978959685934767 -0.11211666827015004 0.2745312018851699 -0.2630497934565232 0.05330140947214817 -0.047724581536516014
