weights/b.npy (npy, 8128 bytes, 1 tensors)

array f8 [1, 1000]
00000000: a851 8dee beda e23f 0000 0000 0000 0000
00000010: 6b5b 5579 96bb b33f 6307 d34d a1a9 81bf
00000020: 0000 0000 0000 0000 9072 f329 9f21 2dbf
00000030: 4ca1 d3e3 f687 d2bf 12e5 badc d731 a23f
00000040: 77ab 46ca 5760 ae3f b3e4 f060 7cfc 7ebf
00000050: 9f3b e74f dc2c ccbf fd78 9ae2 788f 68bf
00000060: 0000 0000 0000 0000 c9a2 8320 f6e6 7cbf
00000070: 4d61 cf54 ada0 ffbf f8ef 01ec b7e6 5ebf
00000080: 0000 0000 0000 0000 a3d3 ab0a 3bb2 b43f
00000090: 0000 0000 0000 0000 3be1 1c8b 8375 61bf
000000a0: 0000 0000 0000 0000 1a57 aa7e 317b 7dbf
000000b0: 0000 0000 0000 0000 b62e dba0 881e 95bf
000000c0: 89be 4fbb 4165 73bf 377c 4f70 6b11 a63f
000000d0: 0000 0000 0000 0000 2118 a64e 581d 7bbf
000000e0: a892 316c 2251 ca3f 0000 0000 0000 0000
000000f0: 25b0 202a f45e ca3f 0000 0000 0000 0000
00000100: 0000 0000 0000 0000 4465 29cc 31af bc3f
00000110: 76bd 4b02 e3be e73f 0000 0000 0000 0000
00000120: 0000 0000 0000 0000 7d72 ae54 23d4 c8bf
00000130: f77a 0043 ee33 a53f 7364 a970 b07e ebbf
00000140: 0000 0000 0000 0000 bb22 9b9e b451 afbf
00000150: 0000 0000 0000 0000 7129 0d03 7d0e c03f
00000160: 0000 0000 0000 0000 0000 0000 0000 0000
00000170: 14ab 7cab abf9 d83f 2812 ae01 7f7f f43f
00000180: 0000 0000 0000 0000 deb4 6825 38df 9f3f
00000190: 8e2c 3a88 16cd 76bf 0fc5 083c 3692 e4bf
000001a0: 0000 0000 0000 0000 3cc6 fd9d a08d 8fbf
000001b0: 353b dd6e fdbc d93f 125a 2ab6 81b6 45bf
000001c0: eb26 0f1f db87 b13f bb8a 6235 6238 c43f
000001d0: 0c1b 1e2c 00df 99bf f3d4 af20 3364 9cbf
000001e0: 2011 ab2e ef90 71bf 4c64 9c8c 8699 d23f
000001f0: 8015 4f34 1851 c73f 93e7 c235 57ee 9a3f
00000200: 0000 0000 0000 0000 5476 51a0 306c a73f
00000210: 0000 0000 0000 0000 0000 0000 0000 0000
00000220: 0000 0000 0000 0000 0000 0000 0000 0000
00000230: 0000 0000 0000 0000 65a0 8f35 0343 71bf
00000240: 8686 7801 dc39 60bf 0000 0000 0000 0000
00000250: 0dab 1553 d631 b3bf 50d4 5ee7 cfa3 b83f
00000260: 0000 0000 0000 0000 ab0f 0fbe 0df2 d7bf
00000270: 2a73 0a42 59d8 7bbf 0c04 9736 ee75 89bf
00000280: 0000 0000 0000 0000 0000 0000 0000 0000
00000290: 41d4 de70 6594 f5bf b873 eae8 c9c3 993f
000002a0: 4364 ac2d 6e1d c03f 0000 0000 0000 0000
000002b0: 6b47 0db6 7b9a e43f 6de4 9793 299b b13f
000002c0: 0000 0000 0000 0000 ceff 7d32 4d25 c33f
000002d0: 5d9c 3dcd 367a 94bf 87e5 c99d 035e 42bf
000002e0: 0000 0000 0000 0000 e1c7 88fa bcac c3bf
000002f0: 0000 0000 0000 0000 c471 4034 caad cf3f
00000300: 2f31 ca6c 3474 b53f d5a2 8a1b c3af ab3f
00000310: d727 8fbc 54c3 cd3f 8e36 fe53 5e29 6bbf
00000320: 0271 025a 1abe 70bf d540 e8a3 0e42 84bf
00000330: 46d0 cf87 a340 64bf 5f76 120a 7735 58bf
00000340: c350 a5e9 77cb 80bf 9b42 110c b9f3 8f3f
00000350: 0000 0000 0000 0000 a88f 8970 c6a9 b33f
00000360: 7355 875b 328d db3f 4fc6 b036 9d39 d43f
00000370: 0000 0000 0000 0000 6d30 a1c7 1cbd 75bf
00000380: b133 f307 6ab8 d53f cad3 b655 b296 56bf
00000390: 11a4 939d 054f 9b3f 33b9 a7b5 1e40 73bf
000003a0: a5ed 1556 8a3f c53f b4e7 a893 2abd b83f
000003b0: bdab 140f 4b8b 60bf fa4e 17b6 30a4 91bf
000003c0: 0000 0000 0000 0000 d678 556e 8677 dabf
000003d0: 0000 0000 0000 0000 1f5c 3cf5 5519 7fbf
000003e0: 309e 6f8b 5c95 7cbf 41d4 4f97 8a16 ebbf
000003f0: a6ae a1e7 1002 69bf 3d5e 45a8 de74 d73f
00000400: 1c6d 4c5b 111e 553f 0000 0000 0000 0000
00000410: b400 f752 92f0 cbbf 7b1a 5d85 5bb1 79bf
00000420: f144 d5ae 7ce1 ca3f afc4 5e89 3f8f b33f
00000430: 3a1e 7f98 70dd 6cbf 1102 9006 4582 1dbf
00000440: c860 dd5a aa9a 7dbf 0000 0000 0000 0000
00000450: 60b1 9832 83e3 7bbf 0000 0000 0000 0000
00000460: 0000 0000 0000 0000 705e 76a3 0727 69bf
00000470: 0067 5c56 2102 75bf 0000 0000 0000 0000
00000480: 0000 0000 0000 0000 3d7e 132f 1030 cdbf
00000490: 917b 39c6 b380 54bf 0e4a cf61 999e 84bf
000004a0: 18ab 85bb 4afd 50bf e78b 4d0a 1de6 91bf
000004b0: 6a9e 92f9 ef8c eb3f a88a 8df7 9893 9b3f
000004c0: 509e 1741 df58 e1bf 0000 0000 0000 0000
000004d0: a0d9 54fa 8bca 59bf 7278 f013 f987 4bbf
000004e0: 00f4 bc6a 3ac7 a63f dffc d4d1 4338 9cbf
000004f0: 1e2e c3f1 d478 97bf 6f88 d0a9 8d38 a23f
00000500: 0c15 fb33 ba05 6cbf 267b bbf2 5183 b43f
00000510: d694 1fe7 7068 c73f 0000 0000 0000 0000
00000520: f4db a414 f834 89bf 4e80 960a 8ab3 49bf
00000530: 0000 0000 0000 0000 a78c 01ee b60d c13f
00000540: 0000 0000 0000 0000 c8c8 a9af a162 da3f
00000550: 3957 d22c f61a 87bf 3f9a d8f7 cd40 88bf
00000560: 5f07 1690 df57 76bf b945 f5c0 61ca 81bf
00000570: 7c99 8830 fe90 5fbf 3d17 bb5e 7f75 58bf
00000580: 75c9 a3d5 1cf4 bb3f 0000 0000 0000 0000
00000590: 8c4e 48c1 b20a 75bf 0000 0000 0000 0000
000005a0: 0000 0000 0000 0000 e8e8 d223 a75f e33f
000005b0: 0000 0000 0000 0000 a5c5 8326 7f68 a8bf
000005c0: e36f b5db 86cb 87bf 0000 0000 0000 0000
000005d0: 0000 0000 0000 0000 3743 80a8 fea3 82bf
000005e0: 0000 0000 0000 0000 a8c9 899b 94e4 e2bf
000005f0: e630 8b5d ccd4 c3bf 0000 0000 0000 0000
00000600: a7dc 98e0 15e4 bc3f ba56 7dea 717b 7bbf
00000610: 9f71 424a ba54 8dbf 6052 9a60 a46d 73bf
00000620: e62c c9dd 766a ccbf 61ce 9e27 3671 8fbf
00000630: bbc7 da00 8f5e ec3f d79f 18ed 47bb 70bf
00000640: 9496 7fa7 a8bd d2bf bc4b 96d1 bd93 c23f
00000650: 5bf2 190f 22eb e1bf ee78 e911 13d0 c2bf
00000660: b348 bd63 145e d93f 0000 0000 0000 0000
00000670: 7114 bdb7 2b2d c23f 1254 1a7f 9d97 47bf
00000680: 60fb 2aa8 25c8 72bf 5d22 abeb 831e cf3f
00000690: 6819 7429 cc06 ccbf 0000 0000 0000 0000
000006a0: 0e4d 2144 7c80 66bf 0000 0000 0000 0000
000006b0: ccf5 1e4e f084 62bf afb3 912b 01f5 ab3f
000006c0: 3536 ed35 86f0 cf3f 5688 c5db 1c1d 64bf
000006d0: 597d a4e8 4c13 fabf 0000 0000 0000 0000
000006e0: 9a45 ece3 330e 35bf 850a 5d13 24a6 823f
000006f0: e8b8 aa32 1f44 b63f 06c3 48c3 373a d2bf
00000700: 0000 0000 0000 0000 2885 fd62 e3b1 5cbf
00000710: 6fb6 84f7 8970 c63f 48c6 0553 1d10 dbbf
00000720: 098b 35e8 d8c8 d2bf 0e63 8899 4eef 9bbf
00000730: 8bd4 7428 dd55 cd3f 9ce2 0982 a62e d13f
00000740: d12e 8329 6bb0 b03f 7d52 52f3 fe04 72bf
00000750: 3225 c1f2 0d70 db3f 32ee 503b 9123 b1bf
00000760: b6c5 756a f4d0 ad3f 21f9 4b65 a6cf d63f
00000770: defd 8d1d 0469 c43f 69d9 99c6 7251 7ebf
00000780: 3f1f 2987 3a3b 963f 5a48 863a fe4c 83bf
00000790: 6f3f c1d7 da9b 60bf 62c8 64c4 6b7b c2bf
000007a0: 5347 427f eed2 abbf 81b3 38fb c094 58bf
000007b0: 0000 0000 0000 0000 9deb d209 c290 a03f
000007c0: 45d0 373d 20c4 a3bf f33d 6db4 61be b0bf
000007d0: 9854 b24f 1c7c 71bf d29f 366e 3efb b03f
000007e0: 0000 0000 0000 0000 0000 0000 0000 0000
000007f0: 0000 0000 0000 0000 f271 3f37 6859 bc3f
0.589202371522835 0.0 0.07708111250154352 -0.008624324977407566 0.0 -0.00022225444715830546 -0.2895486092443391 0.035536523527705324
0.059328788225079636 -0.007565008024408448 -0.22011903668905305 -0.002998100379797751 0.0 -0.00705619948733078 -1.9767278015989007 -0.0018860622513150443
0.0 0.08084458361174866 0.0 -0.0021312302787032367 0.0 -0.007197564448366634 0.0 -0.020624289338953182
-0.004735237850567516 0.04310165163018847 0.0 -0.006619782400212799 0.2056010273255613 0.0 0.2060227590276337 0.0
0.0 0.11204825624863185 0.742051605686284 0.0 0.0 -0.19397393832050006 0.04141182487386701 -0.8592149925635922
0.0 -0.06117023883922942 0.0 0.12544214867586903 0.0 0.0 0.39023868319297716 1.2811269822715392
0.0 0.03112495163275219 -0.00556668092361713 -0.6428481266540603 0.0 -0.015406851598274256 0.4021600325258306 -0.0006626256329863042
0.06847924717217395 0.1579706917446709 -0.025264742558216688 -0.027725981588408066 -0.00428861075005596 0.29062045794996005 0.1821623092093141 0.026299822479564815
0.0 0.04574729878434583 0.0 0.0 0.0 0.0 0.0 -0.004214298759485845
-0.0019807145106519068 0.0 -0.07497920540269494 0.09624957464878148 0.0 -0.37414878426010983 -0.006798123039200724 -0.012431965866996485
0.0 0.0 -1.3487295540810609 0.02516093715768239 0.1258981440558121 0.0 0.6438578181934934 0.06877384045937314
0.0 0.14957585301817605 -0.019997459675689878 -0.0005605237634675333 0.0 -0.15370905144806016 0.0 0.24749114562372487
0.0838043943023805 0.05407533370209242 0.23252352911941784 -0.003315624460760009 -0.004087546287476098 -0.009891619088222484 -0.0024722284274450194 -0.0014775907987209164
-0.008200585191538661 0.015601583176392089 0.0 0.07680931327337126 0.4304929632029008 0.3160164865576904 0.0 -0.005307304783922812
0.3393807485234062 -0.0013787023116098467 0.026668632261962758 -0.004699821433389584 0.16600159839059106 0.09663644890761597 -0.002019545173103292 -0.01722789870639383
0.0 -0.4135452344397782 0.0 -0.007592521451235817 -0.006978379728912951 -0.8465016322430828 -0.003052742974480288 0.3665081637641128
0.0012889070032489685 0.0 -0.21827916193979535 -0.0062726569211181095 0.2100063184430279 0.07640454391254779 -0.0035235594877780748 -0.00011256738947907514
-0.007227578591333557 0.0 -0.0068087696941286635 0.0 0.0 -0.003070368689531304 -0.0051289846649298365 0.0
0.0 -0.2280292730201711 -0.001251388131002538 -0.010068128869453321 -0.001036952000584795 -0.017479375604477012 0.8609542726962449 0.026930227384023425
-0.5420986434300605 0.0 -0.0015741698237668814 -0.0008401838493943394 0.04448874047236728 -0.027558383638503933 -0.022921874290473203 0.03558771799022586
-0.0034206997659987966 0.08012878585894309 0.18287478719063327 0.0 -0.012308061723713216 -0.0007843421964715076 0.0 0.133231035436528
0.0 0.4122699943028576 -0.011281893961761479 -0.011842354894793348 -0.005454896251991886 -0.008686793995965713 -0.0019266588516387564 -0.0014928573463505867
0.10919361320319416 0.0 -0.005137155782466995 0.0 0.0 0.6054263782200708 0.0 -0.04767224640989846
-0.0116186652946268 0.0 0.0 -0.009101857678645337 0.0 -0.5904028928619498 -0.15493158881725505 0.0
0.11285530789688157 -0.006709523185994543 -0.01432176150438452 -0.004743234728853268 -0.22199903325449738 -0.015352652629963605 0.8865427986804585 -0.004084855042982802
-0.2928258548475722 0.14513371213669568 -0.5599527640293432 -0.14697492956742714 0.39636716594862803 0.0 0.1420035025750255 -0.0007199782396180041
-0.0045854063961872915 0.24311875350237502 -0.21895744346711443 0.0 -0.0027468134949600936 0.0 -0.002260655733123262 0.054603611534595024
0.24952771790633368 -0.0024552882807009997 -1.6297120177840354 0.0 -0.00032128111699688546 0.00910595115749869 0.08697695719704124 -0.28480333395695856
0.0 -0.0017513962338500753 0.1753094156824093 -0.4228585539595753 -0.29350874592471193 -0.027280071373840413 0.2291828582325802 0.2684723157795277
0.06519193423735749 -0.004399295711796311 0.42871426302424986 -0.06694896410129372 0.05823482322274336 0.35642394916784964 0.15945483630274188 -0.007401893942747464
0.021710314273405414 -0.009424196396853702 -0.0020274423859873362 -0.144391508956292 -0.054343655619176666 -0.0015003094275798103 0.0 0.032354415606696586
-0.0386056971291571 -0.06540499358128908 -0.004268751708100947 0.06633367720371489 0.0 0.0 0.0 0.11073924397300752
