weights/w.npy (npy, 16128 bytes, 1 tensors)

array f8 [2, 1000]
00000000: af28 3e14 01b8 e6bf 2700 518a 177c 7ebf
00000010: b78f 1af8 6a44 abbf 1585 4a0a ce1d 833f
00000020: 49e2 5c9a 872f 83bf 35f2 4299 4518 81bf
00000030: d6a8 399b dcb8 ee3f bd13 38f8 8486 c2bf
00000040: 8009 40fd 42fc 9f3f 497c ac3e 01fc 433f
00000050: e699 af9b 1396 e53f f47d f28b 069e 6b3f
00000060: decc f259 d9cd 86bf ad0a e59d 9a6a 65bf
00000070: aeda 4fa9 6169 0240 6284 275a 72b7 73bf
00000080: ac7c e397 a769 76bf 3485 6fee a3e9 a33f
00000090: ea7d 0bb0 720d 71bf 9dbe 2afc f6cd 633f
000000a0: 67c3 b53c 4ac7 68bf 1894 f164 4c0d 803f
000000b0: 875b 76b7 5775 97bf dc05 b250 5782 983f
000000c0: 05f6 0cc5 03e7 743f 3720 a6d2 511a a73f
000000d0: 70c8 07d3 6b09 8dbf 579d 7276 aeeb 7d3f
000000e0: 768d b2e6 6c03 b53f ad88 0050 39a6 8bbf
000000f0: 127c c0ad e398 eabf 3e07 e9cf 01da 5dbf
00000100: 4ce5 ed35 15cf 61bf afbc 6b07 4b3e ab3f
00000110: b3fd 233e 83e7 ecbf 3727 8384 15f0 43bf
00000120: fe7d dd41 b2e5 93bf 45de 71a5 f7c7 b2bf
00000130: 4e3c f2d8 34f5 973f 3e65 ee36 ae0a f03f
00000140: 4e4a 2aaf 7ee9 90bf aeb8 a8f2 ae8b c83f
00000150: 28e0 f18b 37dd 72bf ed3c aacf b391 ae3f
00000160: 51e9 d3cf 4511 88bf 91ba 5284 b4a1 7cbf
00000170: ebef a6c6 6bfc e1bf 03b3 285d 887c fdbf
00000180: c70a 18a6 6092 21bf e530 9b1c 7bad 8e3f
00000190: db23 17aa aae1 913f a661 d58c 16aa c03f
000001a0: a098 8bd7 3bd1 6ebf 1fd7 b439 1e77 7ebf
000001b0: 3d08 a229 43e1 c53f 1d47 dd63 eaae 90bf
000001c0: 0db9 da53 4535 a13f 27a5 689b dd4d b03f
000001d0: f588 ab96 d314 67bf 22b0 8b8f b309 5cbf
000001e0: 3cde 82e7 3677 7bbf 1ac3 aaf8 9d87 e5bf
000001f0: 07e9 d539 3f65 b43f 2837 b95c bbce 8c3f
00000200: d0df 33ee 9ebe 92bf be59 89ac 0b10 7a3f
00000210: 8750 4942 a06e 93bf 079b 69d2 c982 8abf
00000220: 6955 6006 aa61 82bf f4b0 66dc a991 61bf
00000230: f5aa 14ca 73cc 70bf c9fb 7471 2b91 713f
00000240: d210 23b6 6657 403f e8eb 9498 22c5 7fbf
00000250: 42c7 bc6b a7b7 803f ce0f 21c3 6a5f a73f
00000260: df5b 0117 d88c 8dbf fd1f 98ad b2c7 db3f
00000270: c584 7e23 dc54 7f3f 4cc5 03fd 0210 c6bf
00000280: 1ccd edde 84b6 65bf caf1 e4c7 dc41 80bf
00000290: 51bf 989b 0724 f93f 5af8 2cb8 d5db b9bf
000002a0: 6e55 6512 e6e6 a83f 3ba9 56b1 66c8 92bf
000002b0: 321c 3322 e065 e7bf 36fc ccd7 bcae d1bf
000002c0: 317a 2031 0114 8dbf c5b8 dc80 2648 b03f
000002d0: 0306 9d09 f9f8 4a3f f358 9d8e 1188 51bf
000002e0: a894 869f 6bca 8abf 8ae3 1323 73d9 de3f
000002f0: 85da f0e0 d598 89bf 1e06 8e2f 39d9 ba3f
00000300: 9fed 6224 b4d2 a53f 965d b684 0fd1 9a3f
00000310: 503e e6f1 ec6e d5bf 9517 92b5 31b8 5abf
00000320: cec2 8e9a ce87 6dbf 8483 cd92 6e59 71bf
00000330: 8bfc 6600 d498 6abf 2a26 8803 4297 5b3f
00000340: 7ebc 08d6 becd 793f b723 9451 5a15 b0bf
00000350: e116 7a25 a733 85bf f3b7 ac49 040b b03f
00000360: 577d 3c56 88d6 e3bf 84af aac3 a3ad bf3f
00000370: 4726 1fb4 685c 81bf 0cef c636 1b52 293f
00000380: 441c 58aa f62c c13f 7e8c e1a5 ae56 75bf
00000390: 8ea6 efb0 8a9d afbf 97f9 6951 7c93 4d3f
000003a0: e522 f860 d898 d8bf eecb 3022 c10b d9bf
000003b0: 676f 9b43 7c7e 5b3f a254 eca3 f612 65bf
000003c0: a59b 4321 0cf8 81bf 7ff9 0fe1 96b7 b1bf
000003d0: 9910 572a 6ee6 62bf 4617 42be 53a0 7f3f
000003e0: ba08 e0d2 f6b0 7e3f acef bb69 e68c f73f
000003f0: 783e 52e3 c112 6c3f 63b4 f2f5 7a8f dcbf
00000400: ee14 1695 eff7 6a3f 7e58 8513 8b84 51bf
00000410: 821d b210 8c4a e83f fcde cda4 b430 713f
00000420: c5aa 852b 60f7 eabf a033 4cb2 f4e9 d3bf
00000430: 4f42 3309 37d5 78bf fc83 e3f3 795a 243f
00000440: defd a8d7 59a7 963f bbea 429a 9324 99bf
00000450: d77e dfe4 6c68 6e3f 7512 2c18 d6c5 8ebf
00000460: b323 6498 4461 62bf aa63 d251 d6d2 5c3f
00000470: e942 efe2 648a 78bf 32c8 223c e8bc 77bf
00000480: 40e1 cacf 9f1d 89bf 569d 684a fa60 e63f
00000490: daee b992 78cd 80bf a3a0 7f45 76ca 70bf
000004a0: 47d0 fac8 b877 533f 90bf 2288 ae7e 763f
000004b0: 8250 3a5a 3dc5 f0bf d35c 34e9 7f5e bcbf
000004c0: b83a 513f 9541 e33f 0c38 c0d8 46bf 8abf
000004d0: 7d3a 0cf1 ff55 5d3f eed8 f019 eb05 7bbf
000004e0: f77e 99f5 464c 953f ad8d 77c4 4b6d 72bf
000004f0: 473a e2f2 df21 9a3f 0f7f 1be2 1355 cabf
00000500: 5cfb f3a1 7198 80bf 981e 474e fac7 dcbf
00000510: ccb4 9523 638d e7bf c752 7305 107d 68bf
00000520: 84f0 4fa2 d223 823f 1a30 da3e 0f37 4e3f
00000530: 3f06 cabe 5c24 8dbf 8ee7 fcab f15e c3bf
00000540: be75 9ae1 961e 61bf 7cdb 12c3 1a8c eebf
00000550: d3a0 a6e2 750f 5d3f f3be fedf 9d18 893f
00000560: 054e 2acf 4810 553f 9152 9702 9638 823f
00000570: 2228 1f37 1284 5c3f 5570 7f3c 615f 5b3f
00000580: b4f5 38c5 ba33 aebf 7740 0cd3 ffd5 57bf
00000590: e150 befa 8a8a 60bf ce60 b9d1 a408 80bf
000005a0: 6c9b 8475 78ae 83bf 1254 8800 0902 e6bf
000005b0: 8e81 13b6 5341 2fbf f827 a4ff e752 75bf
000005c0: 20e2 e8b0 227a 6a3f 3f99 218b 9315 77bf
000005d0: 2630 b274 9ce3 40bf 85a9 3295 2017 463f
000005e0: 23ad ff8b 40d6 8dbf 17d7 909b 48e9 bd3f
000005f0: 6f1b 7fbe 1494 c7bf 5840 b929 a71c 68bf
00000600: eb6a 7a12 6da3 e1bf 06cb cc17 341b 713f
00000610: 0326 16e7 4a66 803f 02d0 15ee a7c6 70bf
00000620: f10f 579b 1a46 e63f f471 02e9 cdd2 8f3f
00000630: a80e 67e7 ac46 f1bf a018 0ff4 f092 19bf
00000640: 3fe6 71e5 3913 ef3f c595 a8c3 aeba ac3f
00000650: 0571 3437 f7c6 bd3f 6f3b 6dc2 a518 e6bf
00000660: dfff 2712 8d44 e2bf 51d7 be1e c29d 80bf
00000670: 8ee2 8e60 24e8 ab3f 53dd 6caf cb42 4b3f
00000680: 927f fe0b 2b4b 653f 0526 04f6 0055 efbf
00000690: 1b99 e4ff 1178 d4bf 6476 e673 ea70 82bf
000006a0: 3f64 4e22 d9db 6a3f 8ac1 5d4f 2b85 79bf
000006b0: d9d6 e21c 3d1a 69bf 4356 2020 b50c d1bf
000006c0: b3e4 65fd 54c6 ba3f 08fe 8974 bc74 42bf
000006d0: 9430 e374 5ab7 fd3f 6f7e 0de2 1416 91bf
000006e0: f166 6f22 39e1 303f c9e1 c17f 82fa 723f
000006f0: ab4b 4a72 f678 d6bf e379 845a a4b4 b7bf
00000700: 9a3a e206 d6bd 7abf 4fba 2879 ac70 48bf
00000710: dfd9 2b2a c390 b53f efe9 ac81 9f0e b8bf
00000720: 73f9 2312 8e44 ed3f e7c3 b7fd bf89 6ebf
00000730: 57b5 5639 97fa e0bf fa9a e0d7 5ec9 ba3f
00000740: 2206 5550 5122 9ebf 5aec 6a53 604d 643f
00000750: 1670 744e a8c3 efbf 6929 a039 5dad d3bf
00000760: fc33 4ebe 0626 9c3f 8aed bc29 3073 e0bf
00000770: 302f a634 03a9 e4bf 9ae0 fa19 12f0 803f
00000780: 5b74 7ebf 886d 8a3f ad89 bc8a 297e 853f
00000790: d5e7 9d56 3a72 623f c0cd 8912 6068 c1bf
000007a0: 5890 2bf1 0263 dcbf cf66 e395 e75b 5f3f
000007b0: 1e75 0c4c 1ac6 80bf cb70 3972 1a46 903f
000007c0: 2a95 4a69 b9dc b8bf 4148 625a f92c b4bf
000007d0: 785a a994 210e 93bf ab70 30f0 40f6 d1bf
000007e0: c13a 413a 46b0 3bbf dab8 6eaa 5c74 3abf
000007f0: f9ea 9271 8ab1 70bf 0c1c 8812 2119 a83f
-0.7099614520423269 -0.007442562059679892 -0.05325636175737663 0.00933419197946476 -0.009367999456672342 -0.00834707616774564 0.960066130804331 -0.1447302066809736
0.031235739428674858 0.0006098753050060103 0.6745698967686706 0.003371250902617135 -0.0111348133635602 -0.002614309297457615 2.3014558055395673 -0.004813620269915027
-0.005471853886972838 0.03889190946189061 -0.004163215635997622 0.0024175476003945443 -0.0030247163719469452 0.007837864714199269 -0.022908564160015323 0.023934711742645706
0.0051031253104247875 0.04512267776868877 -0.01417812574161223 0.007304841513508484 0.08208351738226391 -0.013500640634508032 -0.8311632531730331 -0.0018219964691898595
-0.0021739401121833365 0.053209633499016966 -0.9032608236010929 -0.0006084542337927216 -0.019430909414380075 -0.07336375989131579 0.023396325818392953 1.0026075502158416
-0.0165157122051574 0.1917627987726908 -0.00460550020135745 0.05970537099812554 -0.01175169506540344 -0.006990151542750526 -0.5620631103442951 -1.8429034842512813
-0.0001340620975015165 0.01497932606744041 0.017462412482732375 0.13019067646633892 -0.003761879805426707 -0.0074378185921000475 0.1709369614873725 -0.016292250008809284
0.03360954903233635 0.06368813556823182 -0.00281754804505951 -0.0017112973711688258 -0.006705488653259869 -0.6728048187997928 0.07966990625383029 0.014066184775539961
-0.018305285729155518 0.0063629585279926775 -0.018976692243385187 -0.012944771512775967 -0.008975342101659138 -0.0021446530910990084 -0.004101230909592903 0.004288835239377905
0.0004987002869474516 -0.007756362095558501 0.008162792182335846 0.04564984924266434 -0.014428795053545272 0.43406359627306285 0.007649288097952571 -0.17236363748774364
-0.0026505084164739744 -0.007938122606554372 1.5712963178629773 -0.10101066347576318 0.0486366174178937 -0.018342594694027197 -0.7311859767877478 -0.27629014086045645
-0.014198312103016782 0.06360092779206912 0.000823136902205757 -0.0010700389343206134 -0.013081398778761091 0.4820220797114919 -0.01249854176249455 0.10487706576352493
0.04262316650553121 0.026188127970809903 -0.3348953592585291 -0.0016308293764111016 -0.0036047969083131464 -0.004235679557354714 -0.0032467022567455642 0.0016840119043329918
0.006299729779626449 -0.06282581798235652 -0.010352426367954805 0.0626681022519902 -0.6199380573561183 0.12374328162212406 -0.008477037426831603 0.00019318182184046467
0.13418467824542024 -0.005209619730609847 -0.06174882325997287 0.0009025914212797301 -0.3843289324727677 -0.39134243334700514 0.0016781056896694958 -0.0025725190347523777
-0.008773894086017206 -0.06920760149657744 -0.0023071433704178854 0.007721259233340499 0.007492984919737983 1.4718994264830867 0.003426912963341352 -0.4462573434673855
0.003292053160012124 -0.0010691984335458311 0.7590999914254299 0.004196839942657734 -0.8426972246209848 -0.3111545315921891 -0.0060627126542419215 0.00015528429680158873
0.02212276819977698 -0.02455359105145292 0.0037119032703997012 -0.015025780308414153 -0.0022436465980075425 0.0017592518773083912 -0.0059913578870271844 -0.00579539028892566
-0.01226353505022415 0.6993380978864632 -0.008204404809695576 -0.0040993328075062145 0.001188211874176852 0.005491906895414803 -1.048154213383015 -0.11081695025892495
0.6017557369867381 -0.013060143937789113 0.0017905234746568293 -0.006597441067290639 0.020798786869248933 -0.004498764006231876 0.025519847106404005 -0.20572136440659292
-0.008103263621249183 -0.44970567364041747 -0.7360091872229986 -0.002989321986755253 0.008857389047982396 0.0009220909539222639 -0.014229511806891469 -0.1513349618706425
-0.002089781465498957 -0.9546026048691227 0.0017737055992288933 0.012253983877456664 0.0012856207874037972 0.008896991685938079 0.001740472591779348 0.0016706895421441288
-0.05898841531277857 -0.0014548300061427968 -0.002019187397261133 -0.007828986788056016 -0.009610119902004853 -0.6877484331513435 -0.00023845812669432944 -0.005206018681073836
0.0032320668754233367 -0.005635811177944482 -0.0005154146141577206 0.0006741437049602594 -0.014568809769079543 0.11684087560646748 -0.18420657445514219 -0.002943350305749031
-0.5511994706060624 0.004176333892973677 0.008007607629013874 -0.004095703102724004 0.6960576089845728 0.01553879611338347 -1.0797547377741612 -9.755702650613091e-05
0.971096943029984 0.056111775764559314 0.11631722543501517 -0.690508727779031 -0.570868049107954 -0.008113400042798398 0.05450547865570342 0.0008319372708233498
0.0025993195303754624 -0.9791264348033911 -0.3198285101847362 -0.009004432355875731 0.0032786599062544493 -0.00623051565149558 -0.0030642694101413567 -0.26640060555778095
0.10458880602336044 -0.0005632324401431696 1.8572640005031973 -0.016685797021067147 0.00025756497273975084 0.004633435975954511 -0.35113297616151823 -0.09260012826823742
-0.006528698008095768 -0.0007458536295582105 0.08424014834950054 -0.0939731303778115 0.9146185259158258 -0.00372779367693753 -0.5305896873375485 0.10463516970103717
-0.029427786377033034 0.0024783021320593903 -0.9926339657135965 -0.3074563086271583 0.027488808980297805 -0.5140610518641762 -0.6456314113906725 0.008270398538442959
0.012904232353145575 0.010494541689301718 0.0022517337246741134 -0.13599778084936354 -0.443543181913133 0.0019140016152533917 -0.008190350957699762 0.015892422887518614
-0.09711798496808358 -0.07881124931944418 -0.018608593653278466 -0.2806551309202045 -0.000422494073295459 -0.0004036642298456246 -0.004075566096782828 0.0470667204972913
