weights/w2.npy (npy, 16128 bytes, 1 tensors)

array f8 [1000, 2]
00000000: f329 7932 0268 e33f ebcc 0ea5 9286 e3bf
00000010: 16c2 3281 3890 883f ce03 5e06 fa7d 7fbf
00000020: 2372 964f 84ea c03f b59f 78e9 e492 babf
00000030: 9016 fa7b 541e 77bf ce75 0706 1d70 813f
00000040: 19dc 26ff b1d0 5f3f e2fc 8446 92ff 42bf
00000050: dd81 934c 7c63 96bf 31d9 701c 15d9 70bf
00000060: e07d 5f46 40d7 e33f 863d 946c a746 e4bf
00000070: bfde eec1 2b4e b93f d9e7 df78 d9d9 b6bf
00000080: b163 d099 7e20 adbf 5193 5f8d 4d0d a73f
00000090: 7507 4906 d933 78bf efd4 5328 afcd 763f
000000a0: 524f a394 4ebb da3f 105e 3882 8cec dabf
000000b0: f5b8 6823 83fb 86bf 0b49 5431 3cac 73bf
000000c0: 90f7 22ae e707 8dbf c3a0 373a e7e0 85bf
000000d0: bd9d 2461 39b1 94bf 7c4e 1aed 46e1 7dbf
000000e0: 32d5 bf39 d6a6 f83f e89e 7a36 0ac3 f8bf
000000f0: 753d 80e3 23fb 7abf d2fc 5610 e34d 433f
00000100: 281c 0df2 4949 623f 5bae c5e0 656f 69bf
00000110: d62a b58b 613a b1bf e605 a45e 4001 b03f
00000120: 3326 db5c 0653 64bf 5c74 0566 e6d6 75bf
00000130: bedd 9af6 b056 8bbf e1a5 a42c 7322 24bf
00000140: e483 0a51 29a9 803f 50b3 be0e f379 4abf
00000150: fbcd d3a4 7f28 583f d4ab 0a9a 173f 81bf
00000160: 77d7 9ded e7b8 8b3f 793c 4862 67ab 3fbf
00000170: 50df c33c 83d0 953f ddf8 6705 608d 86bf
00000180: f9dd 8a1f 3ccc 77bf f3f5 9230 1333 873f
00000190: 9df4 399d 7e83 c33f c7db b08c 9ffe c5bf
000001a0: 3524 7709 b70f 7cbf f1ee 4949 66a1 6e3f
000001b0: 7111 b00c cba1 80bf 8cb3 c55d 8ebf 8b3f
000001c0: 2191 f859 3194 c3bf 6f9c c60b cc34 c43f
000001d0: 070b 9e4b 279a 8b3f 97e9 3aee 2491 683f
000001e0: 8cdf d18a 3d6b e13f f421 5154 0b47 e1bf
000001f0: d53e 2ecf 008b 89bf 082b 6561 1c2c 80bf
00000200: 77e5 2940 c034 143f e982 1c3f b16a 6b3f
00000210: 3277 ca23 e453 b7bf ccd1 8907 c7dd b43f
00000220: e7e2 6407 b7f7 e73f 2093 4f80 b298 e8bf
00000230: 43e4 f3cb 857c 76bf 3308 f3de 16bc 7ebf
00000240: d9e8 0bf8 77a6 93bf d870 d86f 0d1f 823f
00000250: 7bc3 225c bd8c cc3f 05b3 bda8 9ad0 cebf
00000260: c8ef b075 6a26 a0bf 6fce 9731 e547 a23f
00000270: 903b 400f 7cf5 e53f 50d4 e2a0 7759 e5bf
00000280: 66cf a8a9 4fb8 50bf 15b8 dab6 cff4 643f
00000290: 01de f499 ef8a bb3f 479a 354e dcd0 c0bf
000002a0: bab0 2006 2625 81bf 3f62 4e7b f42c 8c3f
000002b0: 731e bc1a 80ff bcbf ae09 8e37 b464 b53f
000002c0: 1ff9 5939 b518 7d3f 135d 1bb4 b833 6abf
000002d0: 6160 db84 3efb 743f e5b2 7e59 c5be 79bf
000002e0: 531c ae77 a739 dc3f 37ae cfe2 fded dbbf
000002f0: 6106 ade0 4404 f73f 6e81 b219 1cf5 f6bf
00000300: 8cd0 ac25 546a 673f 946c 2925 ba2c 903f
00000310: c6e7 8668 3e18 9cbf 36e2 0e71 7421 973f
00000320: a39f c641 9350 903f d815 5b31 9180 78bf
00000330: c48f f3bd 91b1 e23f f6a0 2a29 1788 e2bf
00000340: e032 1142 b21a 883f daf9 a696 7d11 803f
00000350: 9a69 7b81 6299 90bf fed1 1d93 80cc 983f
00000360: d19d ab2a a55a d3bf f57c 4bec 99c1 d33f
00000370: 73cf 7d23 927b 8cbf f913 37ae 8157 8dbf
00000380: b6f5 48a8 934a a9bf ed06 4c17 14bf af3f
00000390: 56cf 7714 5e9b bdbf 604c 3579 6298 bf3f
000003a0: 2895 3983 6a9f 983f 41ad 08f6 9b1b 9ebf
000003b0: cb6b 8390 8bc1 a03f 4a0c 64c7 7419 9abf
000003c0: 06fe 764e 56c4 80bf 3da7 95b8 9fa7 6c3f
000003d0: b0e0 4311 baf6 de3f 7488 ef0f 3039 ddbf
000003e0: 15bf ce47 0b42 c2bf 1311 0782 b66a c13f
000003f0: 26bf 5b27 3575 a2bf 7f30 3876 fcb0 7b3f
00000400: da99 882d 6b4e 75bf 57cb 694e 84c9 78bf
00000410: 3fb1 5774 58df be3f bfbe 22d9 3f46 babf
00000420: 6193 624a 5552 363f 1101 0496 e468 413f
00000430: fb5e c3f4 a591 503f e476 248d 0987 6bbf
00000440: 0cad 5b67 9d6f 68bf 70b0 2ab7 3bef 82bf
00000450: fe06 65f3 b62f 543f 27d6 8232 a040 91bf
00000460: 37ae ed97 1ddb 873f 4467 1fe6 cbbd 783f
00000470: 9d34 bff9 18ca 683f 307d 0fd5 2af0 813f
00000480: 64cf 84e1 4a20 91bf 4498 9c81 d264 6cbf
00000490: a8a3 ce47 2453 943f 2d86 dc97 1a75 70bf
000004a0: 7b03 7295 a0c9 b53f d035 3c59 74bb adbf
000004b0: d9ff 64db d148 b4bf 807d 4e90 7e3f b23f
000004c0: 3727 b766 bb07 8b3f 16be 8f44 8162 7c3f
000004d0: 5f8e 7b7c 9177 d23f 907f a1d0 79ec d2bf
000004e0: 0e01 a255 af5c 79bf 9c43 294a 2601 873f
000004f0: 5f64 8b28 eee8 c03f b18d b76b f42e c2bf
00000500: 468e 6e40 43b1 83bf 07f6 bfd2 403f 783f
00000510: 6166 1f6a 0ea2 713f 7e66 2d7e fde7 713f
00000520: aec7 8574 2620 f13f efbe 0a34 27a0 f0bf
00000530: 9c95 73b4 98a1 af3f fc5e f3da 7b07 b2bf
00000540: 3146 99cc 3bd7 b7bf 671c 268b e9e2 b93f
00000550: f3d2 8f6a 8569 77bf e35d 5688 ae77 673f
00000560: 9f91 7695 947f e53f 0509 55c7 7d7c e5bf
00000570: c469 7c4e 9fbe c43f 5b25 a2c5 6b70 c9bf
00000580: 9f5b 9b18 6558 67bf 8820 b35d bfbb 88bf
00000590: 9803 6fe7 57ec babf 2ea4 c95b b6e3 bf3f
000005a0: 42cd 5f5a cd91 923f e592 a8af 5015 95bf
000005b0: b8b8 df0d 2de6 97bf 215e eac9 0c68 96bf
000005c0: 6301 5f88 e34e 95bf 8921 716d 2b13 4cbf
000005d0: 0f61 c5d1 c879 d33f 1f5e c474 8dfd d2bf
000005e0: 461f 603e 55cc 803f d135 bfab 5eaa 963f
000005f0: b723 9f24 7206 c8bf a778 d221 5f05 c83f
00000600: e5b1 0051 ce16 b0bf d7e2 268d 28f7 b23f
00000610: 7d3e a0b0 9a02 a8bf b29e aa1a 8355 a53f
00000620: 512a 48a1 03bb d03f 6475 8281 51c4 d0bf
00000630: e136 686b d927 83bf 685f 3569 e8b8 7ebf
00000640: cd7c 7e1d 9437 7abf 77a2 ccd4 df24 623f
00000650: f14b f3b4 a8e5 84bf f821 84d7 6ab5 903f
00000660: 46ae 64d5 bac0 91bf e7ad fd0e 37d7 8dbf
00000670: 9458 bbf6 f664 4b3f ed48 8086 c772 823f
00000680: 0561 16f1 ed3f 84bf 22c6 e947 b8c4 783f
00000690: 2a54 d260 818e a73f d72e bc60 1866 a2bf
000006a0: 706c 54e5 625b 843f 8fca c117 69dc 603f
000006b0: 5ae7 6286 a210 d13f 14fa ce2f c995 d0bf
000006c0: e259 52a8 6bbe de3f ddd1 0db3 c831 dfbf
000006d0: ac33 44fb b179 cfbf 3e5e 09f6 7d85 cd3f
000006e0: 2c24 e110 6848 6dbf 7835 a6d3 e5f7 723f
000006f0: 3d6f ec5c a7e2 71bf d41b ea3b e6da 763f
00000700: 5d31 f702 a370 d0bf a02b 15c2 da47 d03f
00000710: fccb 8d37 b9d0 7dbf 98e0 8028 1ae7 913f
00000720: d041 257c 7905 a43f 389f 1568 674c a8bf
00000730: abb8 2a93 3132 83bf 0fcd 3e7d ef76 40bf
00000740: 72f1 85cb e6dd d03f 01eb 9921 8798 d1bf
00000750: 41ae cdb1 45b6 d03f b900 66b2 0ade cfbf
00000760: 3894 d2b2 32bb 7fbf 91ad abb9 c44a 6bbf
00000770: fe52 2b10 ca9f 963f 1d28 efd3 9b2e 8ebf
00000780: a8ef 73f0 8281 6c3f a8c7 b498 7ad7 7cbf
00000790: 16d8 1fbb 614c dc3f 40fd 18be 37a7 ddbf
000007a0: 2339 0ea0 b0c7 663f 46ed ba5b 9508 703f
000007b0: c230 def5 2aa5 8bbf 2469 27fd 0fe0 723f
000007c0: 4293 b29a 2b25 7cbf bea6 1415 645e 91bf
000007d0: de4c fa69 df56 ee3f cadc 2efe cb43 eebf
000007e0: 8318 4378 0425 89bf 5af5 5df7 ddc8 73bf
000007f0: 0e50 f71f 090b d83f eca9 e60d c3f3 d7bf
0.606446360188157 -0.6101773475442348 0.01199382919580309 -0.007688500079781014 0.1321568859683718 -0.10380392742138052 -0.005644159332978696 0.008514620539183417
0.001941846680535658 -0.0005797828899075897 -0.021863882230606414 -0.0041132759716247394 0.620025765845579 -0.6336247559246864 0.09884904370016566 -0.089261619577797
-0.056888538623929626 0.045023368365753165 -0.005908820869594202 0.005567249497507406 0.4176823092977787 -0.42068779675307244 -0.011221909063433769 -0.004802928092674695
-0.014175233842589369 -0.010682875122214225 -0.020207306436672335 -0.007294919066811564 1.5407316451867925 -1.5476171615682066 -0.006587162199152776 0.0005891188345045434
0.002232212471799073 -0.003104876499653559 -0.0672970739443984 0.06251909552158672 -0.0024809955856184506 -0.005331897730084991 -0.013348944211755472 -0.00015361457764954871
0.008135149751355493 -0.0008079945377993201 0.0014744993707694876 -0.008421120060423982 0.013536273898107727 -0.00048323892613750353 0.021303225120362257 -0.011011839070303281
-0.005810007911967834 0.011327886504996143 0.15245039631910098 -0.17183298463507254 -0.006850924480610356 0.003739070680522143 -0.008121095967006582 0.013548958050444225
-0.15295998471368313 0.15786123824111395 0.013477618212851107 0.0029988976765171304 0.5443408690762097 -0.5399223944487503 -0.01247215873971134 -0.007896634790673498
7.707999615460212e-05 0.0033467733236566166 -0.09112382768441021 0.08150905546228343 0.7489886421600119 -0.7686398035117215 -0.005489847796746497 -0.007503594722210893
-0.019189714922483645 0.008848290420296598 0.22304503439729814 -0.2407410930567481 -0.03154308973941472 0.03570476751692985 0.6862163827771486 -0.6671713011079508
-0.001020505710255437 0.002558141414588109 0.10758874424652022 -0.13137391871278423 -0.00837163644981619 0.013757619870191749 -0.11327362683015867 0.08356787067717761
0.00710364142071132 -0.003198490857225908 0.005122417654739393 -0.006285448929628433 0.44101893126975716 -0.4364008631662019 1.4385422493363864 -1.434841251735715
0.0028583186625841858 0.015795620458771767 -0.027436232690639682 0.02258855762531394 0.01593237008060523 -0.005981986197814725 0.5841759405125164 -0.5791126064332548
0.011769669190607457 0.007845860633889968 -0.016210116532286635 0.024217614154126814 -0.302407542867937 0.3086914832656043 -0.013907567699540135 -0.014327061776279836
-0.04939710072765584 0.06200468811404201 -0.11565196990687573 0.12341895541367043 0.02404562402661728 -0.029402195827214376 0.032726632490912864 -0.025487732572411916
-0.008186983365589217 0.0034978980590282525 0.48380901037263424 -0.45661546283930154 -0.142640504896456 0.13606911992076984 -0.036050473265161906 0.006760584048162709
-0.005201738990342675 -0.0060515564169801505 0.12059548225778814 -0.10263442088284601 0.0003406007985041118 0.0005313030378886493 0.0010112877526377562 -0.0033602892446101696
-0.002982909611878198 -0.00924536373835158 0.001232079184390888 -0.016848090250922845 0.011648398589122795 0.006040379028456947 0.0030260551265884465 0.008758864047136855
-0.016724748625349575 -0.0034660445643508748 0.01984841049457811 -0.004017928962441836 0.08510783814018723 -0.058070789235084797 -0.07923614126502744 0.07128134749517834
0.013198341438414125 0.006929879143157366 0.2885478702212136 -0.29568333982569417 -0.006191906834033268 0.011232661379070134 0.13210846881591728 -0.14205794582003997
-0.00961544552212169 0.005919697967326615 0.004304939562609884 0.004371633726657385 1.0703491737044533 -1.0390998871698078 0.061779758479853814 -0.07042669387316985
-0.09312795395933261 0.10111865660847884 -0.005715867192510815 0.002864685901567064 0.6718237799837431 -0.6714466946798728 0.16206733066867518 -0.19874331617419724
-0.002849767163620467 -0.012076849982250573 -0.10516881370769082 0.12456836453351691 0.01813431610203265 -0.02058912346014354 -0.023338989230915458 -0.021881294082588213
-0.02080874938815337 -0.0008567773865105081 0.3043081329865495 -0.29672562029870336 0.008202234235809801 0.02213428424129466 -0.18769671238103822 0.18766392852279987
-0.06284799077611287 0.07408383794871597 -0.046894868908677424 0.041668030743776355 0.26141443967995764 -0.2619823231451248 -0.009353350248626881 -0.007500560622552978
-0.00640066010956204 0.002214848680882671 -0.010203664800803454 0.016317052272855265 -0.017336768412105984 -0.014570646424281143 0.0008360105398093226 0.009007986824176995
-0.009887560768035994 0.006046981665905034 0.04600910479454286 -0.035935174759371406 0.009939930556859461 0.0020582249254002603 0.2666403114668491 -0.2591422049407879
0.480372347237248 -0.48741357312908723 -0.24590134400241703 0.23063635362153606 -0.0035745651758003674 0.004630944977532685 -0.004366544496203603 0.005579852439615746
-0.25687480249032096 0.2543856520975911 -0.007279132369933269 0.01748314735616016 0.039104267506107626 -0.047457915740606926 -0.009373080543209808 -0.0005024594670345622
0.26354379535020833 -0.27493456155177404 0.26112501491181567 -0.2489636775098967 -0.007746885338893832 -0.003331550816587821 0.022093922840968887 -0.014737336545199093
0.0034797246368025343 -0.007041434185611019 0.4421619727503424 -0.46333116115780015 0.002780766459586152 0.003914435797635568 -0.013498626354497726 0.004608213860104269
-0.006871385888335637 -0.016961635386144584 0.9481045789601941 -0.9457759823334524 -0.012277636451824009 -0.0048302336271011884 0.37567356225668014 -0.37425304753801814
